2025-12-15 18:24:27,066: Using device: cuda:0
2025-12-15 18:24:27,068: Initializing Conformer with U-Net from trained_models/unet_ssl_20251210_065837/unet_mae_epoch_50.pt
2025-12-15 18:24:27,462: Initialized RNN decoding model
2025-12-15 18:24:27,462: UNetEnhancedModel(
  (unet): NeuralUNet(
    (inc): DoubleConv(
      (double_conv): Sequential(
        (0): Conv2d(1, 64, kernel_size=(3, 3), stride=(1, 1), padding=(1, 1), bias=False)
        (1): BatchNorm2d(64, eps=1e-05, momentum=0.1, affine=True, track_running_stats=True)
        (2): ReLU(inplace=True)
        (3): Conv2d(64, 64, kernel_size=(3, 3), stride=(1, 1), padding=(1, 1), bias=False)
        (4): BatchNorm2d(64, eps=1e-05, momentum=0.1, affine=True, track_running_stats=True)
        (5): ReLU(inplace=True)
      )
    )
    (down1): Down(
      (maxpool_conv): Sequential(
        (0): MaxPool2d(kernel_size=2, stride=2, padding=0, dilation=1, ceil_mode=False)
        (1): DoubleConv(
          (double_conv): Sequential(
            (0): Conv2d(64, 128, kernel_size=(3, 3), stride=(1, 1), padding=(1, 1), bias=False)
            (1): BatchNorm2d(128, eps=1e-05, momentum=0.1, affine=True, track_running_stats=True)
            (2): ReLU(inplace=True)
            (3): Conv2d(128, 128, kernel_size=(3, 3), stride=(1, 1), padding=(1, 1), bias=False)
            (4): BatchNorm2d(128, eps=1e-05, momentum=0.1, affine=True, track_running_stats=True)
            (5): ReLU(inplace=True)
          )
        )
      )
    )
    (down2): Down(
      (maxpool_conv): Sequential(
        (0): MaxPool2d(kernel_size=2, stride=2, padding=0, dilation=1, ceil_mode=False)
        (1): DoubleConv(
          (double_conv): Sequential(
            (0): Conv2d(128, 256, kernel_size=(3, 3), stride=(1, 1), padding=(1, 1), bias=False)
            (1): BatchNorm2d(256, eps=1e-05, momentum=0.1, affine=True, track_running_stats=True)
            (2): ReLU(inplace=True)
            (3): Conv2d(256, 256, kernel_size=(3, 3), stride=(1, 1), padding=(1, 1), bias=False)
            (4): BatchNorm2d(256, eps=1e-05, momentum=0.1, affine=True, track_running_stats=True)
            (5): ReLU(inplace=True)
          )
        )
      )
    )
    (down3): Down(
      (maxpool_conv): Sequential(
        (0): MaxPool2d(kernel_size=2, stride=2, padding=0, dilation=1, ceil_mode=False)
        (1): DoubleConv(
          (double_conv): Sequential(
            (0): Conv2d(256, 512, kernel_size=(3, 3), stride=(1, 1), padding=(1, 1), bias=False)
            (1): BatchNorm2d(512, eps=1e-05, momentum=0.1, affine=True, track_running_stats=True)
            (2): ReLU(inplace=True)
            (3): Conv2d(512, 512, kernel_size=(3, 3), stride=(1, 1), padding=(1, 1), bias=False)
            (4): BatchNorm2d(512, eps=1e-05, momentum=0.1, affine=True, track_running_stats=True)
            (5): ReLU(inplace=True)
          )
        )
      )
    )
    (down4): Down(
      (maxpool_conv): Sequential(
        (0): MaxPool2d(kernel_size=2, stride=2, padding=0, dilation=1, ceil_mode=False)
        (1): DoubleConv(
          (double_conv): Sequential(
            (0): Conv2d(512, 512, kernel_size=(3, 3), stride=(1, 1), padding=(1, 1), bias=False)
            (1): BatchNorm2d(512, eps=1e-05, momentum=0.1, affine=True, track_running_stats=True)
            (2): ReLU(inplace=True)
            (3): Conv2d(512, 512, kernel_size=(3, 3), stride=(1, 1), padding=(1, 1), bias=False)
            (4): BatchNorm2d(512, eps=1e-05, momentum=0.1, affine=True, track_running_stats=True)
            (5): ReLU(inplace=True)
          )
        )
      )
    )
    (up1): Up(
      (up): Upsample(scale_factor=2.0, mode='bilinear')
      (conv): DoubleConv(
        (double_conv): Sequential(
          (0): Conv2d(1024, 512, kernel_size=(3, 3), stride=(1, 1), padding=(1, 1), bias=False)
          (1): BatchNorm2d(512, eps=1e-05, momentum=0.1, affine=True, track_running_stats=True)
          (2): ReLU(inplace=True)
          (3): Conv2d(512, 256, kernel_size=(3, 3), stride=(1, 1), padding=(1, 1), bias=False)
          (4): BatchNorm2d(256, eps=1e-05, momentum=0.1, affine=True, track_running_stats=True)
          (5): ReLU(inplace=True)
        )
      )
    )
    (up2): Up(
      (up): Upsample(scale_factor=2.0, mode='bilinear')
      (conv): DoubleConv(
        (double_conv): Sequential(
          (0): Conv2d(512, 256, kernel_size=(3, 3), stride=(1, 1), padding=(1, 1), bias=False)
          (1): BatchNorm2d(256, eps=1e-05, momentum=0.1, affine=True, track_running_stats=True)
          (2): ReLU(inplace=True)
          (3): Conv2d(256, 128, kernel_size=(3, 3), stride=(1, 1), padding=(1, 1), bias=False)
          (4): BatchNorm2d(128, eps=1e-05, momentum=0.1, affine=True, track_running_stats=True)
          (5): ReLU(inplace=True)
        )
      )
    )
    (up3): Up(
      (up): Upsample(scale_factor=2.0, mode='bilinear')
      (conv): DoubleConv(
        (double_conv): Sequential(
          (0): Conv2d(256, 128, kernel_size=(3, 3), stride=(1, 1), padding=(1, 1), bias=False)
          (1): BatchNorm2d(128, eps=1e-05, momentum=0.1, affine=True, track_running_stats=True)
          (2): ReLU(inplace=True)
          (3): Conv2d(128, 64, kernel_size=(3, 3), stride=(1, 1), padding=(1, 1), bias=False)
          (4): BatchNorm2d(64, eps=1e-05, momentum=0.1, affine=True, track_running_stats=True)
          (5): ReLU(inplace=True)
        )
      )
    )
    (up4): Up(
      (up): Upsample(scale_factor=2.0, mode='bilinear')
      (conv): DoubleConv(
        (double_conv): Sequential(
          (0): Conv2d(128, 64, kernel_size=(3, 3), stride=(1, 1), padding=(1, 1), bias=False)
          (1): BatchNorm2d(64, eps=1e-05, momentum=0.1, affine=True, track_running_stats=True)
          (2): ReLU(inplace=True)
          (3): Conv2d(64, 64, kernel_size=(3, 3), stride=(1, 1), padding=(1, 1), bias=False)
          (4): BatchNorm2d(64, eps=1e-05, momentum=0.1, affine=True, track_running_stats=True)
          (5): ReLU(inplace=True)
        )
      )
    )
    (outc): OutConv(
      (conv): Conv2d(64, 1, kernel_size=(1, 1), stride=(1, 1))
    )
  )
  (decoder): ConformerDecoder(
    (day_layers): ModuleList(
      (0-44): 45 x Sequential(
        (0): Linear(in_features=512, out_features=512, bias=True)
        (1): LayerNorm((512,), eps=1e-05, elementwise_affine=True)
        (2): GELU(approximate='none')
        (3): Dropout(p=0.2, inplace=False)
      )
    )
    (input_proj): Sequential(
      (0): Linear(in_features=7168, out_features=256, bias=True)
      (1): LayerNorm((256,), eps=1e-05, elementwise_affine=True)
      (2): Dropout(p=0.2, inplace=False)
    )
    (pre_norm): LayerNorm((256,), eps=1e-05, elementwise_affine=True)
    (conformer): Conformer(
      (conformer_layers): ModuleList(
        (0-3): 4 x ConformerLayer(
          (ffn1): _FeedForwardModule(
            (sequential): Sequential(
              (0): LayerNorm((256,), eps=1e-05, elementwise_affine=True)
              (1): Linear(in_features=256, out_features=512, bias=True)
              (2): SiLU()
              (3): Dropout(p=0.2, inplace=False)
              (4): Linear(in_features=512, out_features=256, bias=True)
              (5): Dropout(p=0.2, inplace=False)
            )
          )
          (self_attn_layer_norm): LayerNorm((256,), eps=1e-05, elementwise_affine=True)
          (self_attn): MultiheadAttention(
            (out_proj): NonDynamicallyQuantizableLinear(in_features=256, out_features=256, bias=True)
          )
          (self_attn_dropout): Dropout(p=0.2, inplace=False)
          (conv_module): _ConvolutionModule(
            (layer_norm): LayerNorm((256,), eps=1e-05, elementwise_affine=True)
            (sequential): Sequential(
              (0): Conv1d(256, 512, kernel_size=(1,), stride=(1,))
              (1): GLU(dim=1)
              (2): Conv1d(256, 256, kernel_size=(15,), stride=(1,), padding=(7,), groups=256)
              (3): BatchNorm1d(256, eps=1e-05, momentum=0.1, affine=True, track_running_stats=True)
              (4): SiLU()
              (5): Conv1d(256, 256, kernel_size=(1,), stride=(1,))
              (6): Dropout(p=0.2, inplace=False)
            )
          )
          (ffn2): _FeedForwardModule(
            (sequential): Sequential(
              (0): LayerNorm((256,), eps=1e-05, elementwise_affine=True)
              (1): Linear(in_features=256, out_features=512, bias=True)
              (2): SiLU()
              (3): Dropout(p=0.2, inplace=False)
              (4): Linear(in_features=512, out_features=256, bias=True)
              (5): Dropout(p=0.2, inplace=False)
            )
          )
          (final_layer_norm): LayerNorm((256,), eps=1e-05, elementwise_affine=True)
        )
      )
    )
    (output_norm): LayerNorm((256,), eps=1e-05, elementwise_affine=True)
    (output_dropout): Dropout(p=0.1, inplace=False)
    (out): Linear(in_features=256, out_features=41, bias=True)
  )
)
2025-12-15 18:24:27,465: Model has 34,948,906 parameters
2025-12-15 18:24:27,466: Model has 11,865,600 day-specific parameters | 33.95% of total parameters
2025-12-15 18:24:37,644: Successfully initialized datasets
2025-12-15 18:24:39,499: Train batch 0: loss: 681.63 grad norm: 908.62 time: 1.439
2025-12-15 18:24:39,499: Running test after training batch: 0
…
