…
        (37): Parameter containing: [torch.float32 of size 1x512]
        (38): Parameter containing: [torch.float32 of size 1x512]
        (39): Parameter containing: [torch.float32 of size 1x512]
        (40): Parameter containing: [torch.float32 of size 1x512]
        (41): Parameter containing: [torch.float32 of size 1x512]
        (42): Parameter containing: [torch.float32 of size 1x512]
        (43): Parameter containing: [torch.float32 of size 1x512]
        (44): Parameter containing: [torch.float32 of size 1x512]
    )
    (day_layer_dropout): Dropout(p=0.2, inplace=False)
    (projection): Linear(in_features=7168, out_features=512, bias=True)
    (conformer): Conformer(
      (conformer_layers): ModuleList(
        (0-5): 6 x ConformerLayer(
          (ffn1): _FeedForwardModule(
            (sequential): Sequential(
              (0): LayerNorm((512,), eps=1e-05, elementwise_affine=True)
              (1): Linear(in_features=512, out_features=2048, bias=True)
              (2): SiLU()
              (3): Dropout(p=0.2, inplace=False)
              (4): Linear(in_features=2048, out_features=512, bias=True)
              (5): Dropout(p=0.2, inplace=False)
            )
          )
          (self_attn_layer_norm): LayerNorm((512,), eps=1e-05, elementwise_affine=True)
          (self_attn): MultiheadAttention(
            (out_proj): NonDynamicallyQuantizableLinear(in_features=512, out_features=512, bias=True)
          )
          (self_attn_dropout): Dropout(p=0.2, inplace=False)
          (conv_module): _ConvolutionModule(
            (layer_norm): LayerNorm((512,), eps=1e-05, elementwise_affine=True)
            (sequential): Sequential(
              (0): Conv1d(512, 1024, kernel_size=(1,), stride=(1,))
              (1): GLU(dim=1)
              (2): Conv1d(512, 512, kernel_size=(31,), stride=(1,), padding=(15,), groups=512)
              (3): BatchNorm1d(512, eps=1e-05, momentum=0.1, affine=True, track_running_stats=True)
              (4): SiLU()
              (5): Conv1d(512, 512, kernel_size=(1,), stride=(1,))
              (6): Dropout(p=0.2, inplace=False)
            )
          )
          (ffn2): _FeedForwardModule(
            (sequential): Sequential(
              (0): LayerNorm((512,), eps=1e-05, elementwise_affine=True)
              (1): Linear(in_features=512, out_features=2048, bias=True)
              (2): SiLU()
              (3): Dropout(p=0.2, inplace=False)
              (4): Linear(in_features=2048, out_features=512, bias=True)
              (5): Dropout(p=0.2, inplace=False)
            )
          )
          (final_layer_norm): LayerNorm((512,), eps=1e-05, elementwise_affine=True)
        )
      )
    )
    (out): Linear(in_features=512, out_features=41, bias=True)
  )
)
2025-12-08 19:06:15,281: Model has 51,874,345 parameters
2025-12-08 19:06:15,281: Model has 11,819,520 day-specific parameters | 22.78% of total parameters
2025-12-08 19:06:24,098: Successfully initialized datasets
2025-12-08 19:07:08,332: Train batch 0: loss: 750.69 grad norm: 1060.01 time: 42.419
2025-12-08 19:07:08,332: Running test after training batch: 0
…
