…
      (36): Parameter containing: [torch.float32 of size 1x512]
      (37): Parameter containing: [torch.float32 of size 1x512]
      (38): Parameter containing: [torch.float32 of size 1x512]
      (39): Parameter containing: [torch.float32 of size 1x512]
      (40): Parameter containing: [torch.float32 of size 1x512]
      (41): Parameter containing: [torch.float32 of size 1x512]
      (42): Parameter containing: [torch.float32 of size 1x512]
      (43): Parameter containing: [torch.float32 of size 1x512]
      (44): Parameter containing: [torch.float32 of size 1x512]
  )
  (input_proj): Sequential(
    (0): Linear(in_features=7168, out_features=256, bias=True)
    (1): LayerNorm((256,), eps=1e-05, elementwise_affine=True)
    (2): Dropout(p=0.2, inplace=False)
  )
  (pre_norm): LayerNorm((256,), eps=1e-05, elementwise_affine=True)
  (conformer): Conformer(
    (conformer_layers): ModuleList(
      (0-3): 4 x ConformerLayer(
        (ffn1): _FeedForwardModule(
          (sequential): Sequential(
            (0): LayerNorm((256,), eps=1e-05, elementwise_affine=True)
            (1): Linear(in_features=256, out_features=512, bias=True)
            (2): SiLU()
            (3): Dropout(p=0.2, inplace=False)
            (4): Linear(in_features=512, out_features=256, bias=True)
            (5): Dropout(p=0.2, inplace=False)
          )
        )
        (self_attn_layer_norm): LayerNorm((256,), eps=1e-05, elementwise_affine=True)
        (self_attn): MultiheadAttention(
          (out_proj): NonDynamicallyQuantizableLinear(in_features=256, out_features=256, bias=True)
        )
        (self_attn_dropout): Dropout(p=0.2, inplace=False)
        (conv_module): _ConvolutionModule(
          (layer_norm): LayerNorm((256,), eps=1e-05, elementwise_affine=True)
          (sequential): Sequential(
            (0): Conv1d(256, 512, kernel_size=(1,), stride=(1,))
            (1): GLU(dim=1)
            (2): Conv1d(256, 256, kernel_size=(15,), stride=(1,), padding=(7,), groups=256)
            (3): BatchNorm1d(256, eps=1e-05, momentum=0.1, affine=True, track_running_stats=True)
            (4): SiLU()
            (5): Conv1d(256, 256, kernel_size=(1,), stride=(1,))
            (6): Dropout(p=0.2, inplace=False)
          )
        )
        (ffn2): _FeedForwardModule(
          (sequential): Sequential(
            (0): LayerNorm((256,), eps=1e-05, elementwise_affine=True)
            (1): Linear(in_features=256, out_features=512, bias=True)
            (2): SiLU()
            (3): Dropout(p=0.2, inplace=False)
            (4): Linear(in_features=512, out_features=256, bias=True)
            (5): Dropout(p=0.2, inplace=False)
          )
        )
        (final_layer_norm): LayerNorm((256,), eps=1e-05, elementwise_affine=True)
      )
    )
  )
  (output_norm): LayerNorm((256,), eps=1e-05, elementwise_affine=True)
  (output_dropout): Dropout(p=0.1, inplace=False)
  (out): Linear(in_features=256, out_features=41, bias=True)
)
2025-12-15 22:04:00,486: Model has 17,641,001 parameters
2025-12-15 22:04:00,486: Model has 11,819,520 day-specific parameters | 67.00% of total parameters
2025-12-15 22:04:09,163: Successfully initialized datasets
2025-12-15 22:04:10,408: Train batch 0: loss: 28.57 grad norm: 13.02 time: 0.880
2025-12-15 22:04:10,408: Running test after training batch: 0
…
