2025-12-10 22:39:15,608: Using device: cuda:0
2025-12-10 22:39:15,610: Initializing RNN with U-Net from trained_models/unet_ssl_20251210_065837/unet_mae_epoch_50.pt
2025-12-10 22:39:16,311: Using torch.compile
2025-12-10 22:39:16,979: Initialized RNN decoding model
2025-12-10 22:39:16,979: OptimizedModule(
  (_orig_mod): UNetEnhancedModel(
    (unet): NeuralUNet(
      (inc): DoubleConv(
        (double_conv): Sequential(
          (0): Conv2d(1, 64, kernel_size=(3, 3), stride=(1, 1), padding=(1, 1), bias=False)
          (1): BatchNorm2d(64, eps=1e-05, momentum=0.1, affine=True, track_running_stats=True)
          (2): ReLU(inplace=True)
          (3): Conv2d(64, 64, kernel_size=(3, 3), stride=(1, 1), padding=(1, 1), bias=False)
          (4): BatchNorm2d(64, eps=1e-05, momentum=0.1, affine=True, track_running_stats=True)
          (5): ReLU(inplace=True)
        )
      )
      (down1): Down(
        (maxpool_conv): Sequential(
          (0): MaxPool2d(kernel_size=2, stride=2, padding=0, dilation=1, ceil_mode=False)
          (1): DoubleConv(
            (double_conv): Sequential(
              (0): Conv2d(64, 128, kernel_size=(3, 3), stride=(1, 1), padding=(1, 1), bias=False)
              (1): BatchNorm2d(128, eps=1e-05, momentum=0.1, affine=True, track_running_stats=True)
              (2): ReLU(inplace=True)
              (3): Conv2d(128, 128, kernel_size=(3, 3), stride=(1, 1), padding=(1, 1), bias=False)
              (4): BatchNorm2d(128, eps=1e-05, momentum=0.1, affine=True, track_running_stats=True)
              (5): ReLU(inplace=True)
            )
          )
        )
      )
      (down2): Down(
        (maxpool_conv): Sequential(
          (0): MaxPool2d(kernel_size=2, stride=2, padding=0, dilation=1, ceil_mode=False)
          (1): DoubleConv(
            (double_conv): Sequential(
              (0): Conv2d(128, 256, kernel_size=(3, 3), stride=(1, 1), padding=(1, 1), bias=False)
              (1): BatchNorm2d(256, eps=1e-05, momentum=0.1, affine=True, track_running_stats=True)
              (2): ReLU(inplace=True)
              (3): Conv2d(256, 256, kernel_size=(3, 3), stride=(1, 1), padding=(1, 1), bias=False)
              (4): BatchNorm2d(256, eps=1e-05, momentum=0.1, affine=True, track_running_stats=True)
              (5): ReLU(inplace=True)
            )
          )
        )
      )
      (down3): Down(
        (maxpool_conv): Sequential(
          (0): MaxPool2d(kernel_size=2, stride=2, padding=0, dilation=1, ceil_mode=False)
          (1): DoubleConv(
            (double_conv): Sequential(
              (0): Conv2d(256, 512, kernel_size=(3, 3), stride=(1, 1), padding=(1, 1), bias=False)
              (1): BatchNorm2d(512, eps=1e-05, momentum=0.1, affine=True, track_running_stats=True)
              (2): ReLU(inplace=True)
              (3): Conv2d(512, 512, kernel_size=(3, 3), stride=(1, 1), padding=(1, 1), bias=False)
              (4): BatchNorm2d(512, eps=1e-05, momentum=0.1, affine=True, track_running_stats=True)
              (5): ReLU(inplace=True)
            )
          )
        )
      )
      (down4): Down(
        (maxpool_conv): Sequential(
          (0): MaxPool2d(kernel_size=2, stride=2, padding=0, dilation=1, ceil_mode=False)
          (1): DoubleConv(
            (double_conv): Sequential(
              (0): Conv2d(512, 512, kernel_size=(3, 3), stride=(1, 1), padding=(1, 1), bias=False)
              (1): BatchNorm2d(512, eps=1e-05, momentum=0.1, affine=True, track_running_stats=True)
              (2): ReLU(inplace=True)
              (3): Conv2d(512, 512, kernel_size=(3, 3), stride=(1, 1), padding=(1, 1), bias=False)
              (4): BatchNorm2d(512, eps=1e-05, momentum=0.1, affine=True, track_running_stats=True)
              (5): ReLU(inplace=True)
            )
          )
        )
      )
      (up1): Up(
        (up): Upsample(scale_factor=2.0, mode='bilinear')
        (conv): DoubleConv(
          (double_conv): Sequential(
            (0): Conv2d(1024, 512, kernel_size=(3, 3), stride=(1, 1), padding=(1, 1), bias=False)
            (1): BatchNorm2d(512, eps=1e-05, momentum=0.1, affine=True, track_running_stats=True)
            (2): ReLU(inplace=True)
            (3): Conv2d(512, 256, kernel_size=(3, 3), stride=(1, 1), padding=(1, 1), bias=False)
            (4): BatchNorm2d(256, eps=1e-05, momentum=0.1, affine=True, track_running_stats=True)
            (5): ReLU(inplace=True)
          )
        )
      )
      (up2): Up(
        (up): Upsample(scale_factor=2.0, mode='bilinear')
        (conv): DoubleConv(
          (double_conv): Sequential(
            (0): Conv2d(512, 256, kernel_size=(3, 3), stride=(1, 1), padding=(1, 1), bias=False)
            (1): BatchNorm2d(256, eps=1e-05, momentum=0.1, affine=True, track_running_stats=True)
            (2): ReLU(inplace=True)
            (3): Conv2d(256, 128, kernel_size=(3, 3), stride=(1, 1), padding=(1, 1), bias=False)
            (4): BatchNorm2d(128, eps=1e-05, momentum=0.1, affine=True, track_running_stats=True)
            (5): ReLU(inplace=True)
          )
        )
      )
      (up3): Up(
        (up): Upsample(scale_factor=2.0, mode='bilinear')
        (conv): DoubleConv(
          (double_conv): Sequential(
            (0): Conv2d(256, 128, kernel_size=(3, 3), stride=(1, 1), padding=(1, 1), bias=False)
            (1): BatchNorm2d(128, eps=1e-05, momentum=0.1, affine=True, track_running_stats=True)
            (2): ReLU(inplace=True)
            (3): Conv2d(128, 64, kernel_size=(3, 3), stride=(1, 1), padding=(1, 1), bias=False)
            (4): BatchNorm2d(64, eps=1e-05, momentum=0.1, affine=True, track_running_stats=True)
            (5): ReLU(inplace=True)
          )
        )
      )
      (up4): Up(
        (up): Upsample(scale_factor=2.0, mode='bilinear')
        (conv): DoubleConv(
          (double_conv): Sequential(
            (0): Conv2d(128, 64, kernel_size=(3, 3), stride=(1, 1), padding=(1, 1), bias=False)
            (1): BatchNorm2d(64, eps=1e-05, momentum=0.1, affine=True, track_running_stats=True)
            (2): ReLU(inplace=True)
            (3): Conv2d(64, 64, kernel_size=(3, 3), stride=(1, 1), padding=(1, 1), bias=False)
            (4): BatchNorm2d(64, eps=1e-05, momentum=0.1, affine=True, track_running_stats=True)
            (5): ReLU(inplace=True)
          )
        )
      )
      (outc): OutConv(
        (conv): Conv2d(64, 1, kernel_size=(1, 1), stride=(1, 1))
      )
    )
    (decoder): GRUDecoder(
      (day_layer_activation): Softsign()
      (day_weights): ParameterList(
          (0): Parameter containing: [torch.float32 of size 512x512]
          (1): Parameter containing: [torch.float32 of size 512x512]
          (2): Parameter containing: [torch.float32 of size 512x512]
          (3): Parameter containing: [torch.float32 of size 512x512]
…
